model VGG (
  (features): Sequential (
    (0): Conv2d(3, 64, kernel_size=(3, 3), stride=(1, 1), padding=(1, 1))
    (1): BatchNorm2d(64, eps=1e-05, momentum=0.1, affine=False)
    (2): ReLU (inplace)
    (3): Conv2d(64, 64, kernel_size=(3, 3), stride=(1, 1), padding=(1, 1))
    (4): BatchNorm2d(64, eps=1e-05, momentum=0.1, affine=False)
    (5): ReLU (inplace)
    (6): MaxPool2d (size=(2, 2), stride=(2, 2), dilation=(1, 1))
    (7): Conv2d(64, 128, kernel_size=(3, 3), stride=(1, 1), padding=(1, 1))
    (8): BatchNorm2d(128, eps=1e-05, momentum=0.1, affine=False)
    (9): ReLU (inplace)
    (10): Conv2d(128, 128, kernel_size=(3, 3), stride=(1, 1), padding=(1, 1))
    (11): BatchNorm2d(128, eps=1e-05, momentum=0.1, affine=False)
    (12): ReLU (inplace)
    (13): MaxPool2d (size=(2, 2), stride=(2, 2), dilation=(1, 1))
    (14): Conv2d(128, 256, kernel_size=(3, 3), stride=(1, 1), padding=(1, 1))
    (15): BatchNorm2d(256, eps=1e-05, momentum=0.1, affine=False)
    (16): ReLU (inplace)
    (17): Conv2d(256, 256, kernel_size=(3, 3), stride=(1, 1), padding=(1, 1))
    (18): BatchNorm2d(256, eps=1e-05, momentum=0.1, affine=False)
    (19): ReLU (inplace)
    (20): MaxPool2d (size=(2, 2), stride=(2, 2), dilation=(1, 1))
    (21): Conv2d(256, 512, kernel_size=(3, 3), stride=(1, 1), padding=(1, 1))
    (22): BatchNorm2d(512, eps=1e-05, momentum=0.1, affine=False)
    (23): ReLU (inplace)
    (24): Conv2d(512, 512, kernel_size=(3, 3), stride=(1, 1), padding=(1, 1))
    (25): BatchNorm2d(512, eps=1e-05, momentum=0.1, affine=False)
    (26): ReLU (inplace)
    (27): MaxPool2d (size=(2, 2), stride=(2, 2), dilation=(1, 1))
    (28): Conv2d(512, 512, kernel_size=(3, 3), stride=(1, 1), padding=(1, 1))
    (29): BatchNorm2d(512, eps=1e-05, momentum=0.1, affine=False)
    (30): ReLU (inplace)
    (31): Conv2d(512, 512, kernel_size=(3, 3), stride=(1, 1), padding=(1, 1))
    (32): BatchNorm2d(512, eps=1e-05, momentum=0.1, affine=False)
    (33): ReLU (inplace)
    (34): MaxPool2d (size=(2, 2), stride=(2, 2), dilation=(1, 1))
  )
  (classifier): Sequential (
    (0): Linear (512 -> 512)
    (1): ReLU (inplace)
    (2): Dropout (p = 0.5)
    (3): Linear (512 -> 1000)
  )
)
newmodel VGG (
  (features): Sequential (
    (0): controlledConv2 (
      (conv): Conv2d(3, 64, kernel_size=(3, 3), stride=(1, 1), padding=(1, 1))
    )
    (1): BatchNorm2d(64, eps=1e-05, momentum=0.1, affine=False)
    (2): ReLU (inplace)
    (3): controlledConv2 (
      (conv): Conv2d(64, 64, kernel_size=(3, 3), stride=(1, 1), padding=(1, 1))
    )
    (4): BatchNorm2d(64, eps=1e-05, momentum=0.1, affine=False)
    (5): ReLU (inplace)
    (6): MaxPool2d (size=(2, 2), stride=(2, 2), dilation=(1, 1))
    (7): controlledConv2 (
      (conv): Conv2d(64, 128, kernel_size=(3, 3), stride=(1, 1), padding=(1, 1))
    )
    (8): BatchNorm2d(128, eps=1e-05, momentum=0.1, affine=False)
    (9): ReLU (inplace)
    (10): controlledConv2 (
      (conv): Conv2d(128, 128, kernel_size=(3, 3), stride=(1, 1), padding=(1, 1))
    )
    (11): BatchNorm2d(128, eps=1e-05, momentum=0.1, affine=False)
    (12): ReLU (inplace)
    (13): MaxPool2d (size=(2, 2), stride=(2, 2), dilation=(1, 1))
    (14): controlledConv2 (
      (conv): Conv2d(128, 256, kernel_size=(3, 3), stride=(1, 1), padding=(1, 1))
    )
    (15): BatchNorm2d(256, eps=1e-05, momentum=0.1, affine=False)
    (16): ReLU (inplace)
    (17): controlledConv2 (
      (conv): Conv2d(256, 256, kernel_size=(3, 3), stride=(1, 1), padding=(1, 1))
    )
    (18): BatchNorm2d(256, eps=1e-05, momentum=0.1, affine=False)
    (19): ReLU (inplace)
    (20): MaxPool2d (size=(2, 2), stride=(2, 2), dilation=(1, 1))
    (21): controlledConv2 (
      (conv): Conv2d(256, 512, kernel_size=(3, 3), stride=(1, 1), padding=(1, 1))
    )
    (22): BatchNorm2d(512, eps=1e-05, momentum=0.1, affine=False)
    (23): ReLU (inplace)
    (24): controlledConv2 (
      (conv): Conv2d(512, 512, kernel_size=(3, 3), stride=(1, 1), padding=(1, 1))
    )
    (25): BatchNorm2d(512, eps=1e-05, momentum=0.1, affine=False)
    (26): ReLU (inplace)
    (27): MaxPool2d (size=(2, 2), stride=(2, 2), dilation=(1, 1))
    (28): controlledConv2 (
      (conv): Conv2d(512, 512, kernel_size=(3, 3), stride=(1, 1), padding=(1, 1))
    )
    (29): BatchNorm2d(512, eps=1e-05, momentum=0.1, affine=False)
    (30): ReLU (inplace)
    (31): controlledConv2 (
      (conv): Conv2d(512, 512, kernel_size=(3, 3), stride=(1, 1), padding=(1, 1))
    )
    (32): BatchNorm2d(512, eps=1e-05, momentum=0.1, affine=False)
    (33): ReLU (inplace)
    (34): MaxPool2d (size=(2, 2), stride=(2, 2), dilation=(1, 1))
  )
  (classifier): Sequential (
    (0): Linear (512 -> 512)
    (1): ReLU (inplace)
    (2): Dropout (p = 0.5)
    (3): Linear (512 -> 1000)
  )
)
